…
/dartfs/rc/nosnapshots/V/VaickusL-nb/EDIT_Students/users/Gokul_Srinivasan/anaconda3/envs/jupyter-ultimate/lib/python3.7/site-packages/torchvision/models/_utils.py:223: UserWarning: Arguments other than a weight enum or `None` for 'weights' are deprecated since 0.13 and may be removed in the future. The current behavior is equivalent to passing `weights=ViT_B_32_Weights.IMAGENET1K_V1`. You can also use `weights=ViT_B_32_Weights.DEFAULT` to get the most up-to-date weights.
  warnings.warn(msg)
1105284
28799
21480
Layer: 0
Conv2d(3, 768, kernel_size=(32, 32), stride=(32, 32))
Layer: 1
Encoder(
  (dropout): Dropout(p=0.0, inplace=False)
  (layers): Sequential(
    (encoder_layer_0): EncoderBlock(
      (ln_1): LayerNorm((768,), eps=1e-06, elementwise_affine=True)
      (self_attention): MultiheadAttention(
        (out_proj): NonDynamicallyQuantizableLinear(in_features=768, out_features=768, bias=True)
      )
      (dropout): Dropout(p=0.0, inplace=False)
      (ln_2): LayerNorm((768,), eps=1e-06, elementwise_affine=True)
      (mlp): MLPBlock(
        (0): Linear(in_features=768, out_features=3072, bias=True)
        (1): GELU(approximate='none')
        (2): Dropout(p=0.0, inplace=False)
        (3): Linear(in_features=3072, out_features=768, bias=True)
        (4): Dropout(p=0.0, inplace=False)
      )
    )
    (encoder_layer_1): EncoderBlock(
      (ln_1): LayerNorm((768,), eps=1e-06, elementwise_affine=True)
      (self_attention): MultiheadAttention(
        (out_proj): NonDynamicallyQuantizableLinear(in_features=768, out_features=768, bias=True)
      )
      (dropout): Dropout(p=0.0, inplace=False)
      (ln_2): LayerNorm((768,), eps=1e-06, elementwise_affine=True)
      (mlp): MLPBlock(
        (0): Linear(in_features=768, out_features=3072, bias=True)
        (1): GELU(approximate='none')
        (2): Dropout(p=0.0, inplace=False)
        (3): Linear(in_features=3072, out_features=768, bias=True)
        (4): Dropout(p=0.0, inplace=False)
      )
    )
    (encoder_layer_2): EncoderBlock(
      (ln_1): LayerNorm((768,), eps=1e-06, elementwise_affine=True)
      (self_attention): MultiheadAttention(
        (out_proj): NonDynamicallyQuantizableLinear(in_features=768, out_features=768, bias=True)
      )
      (dropout): Dropout(p=0.0, inplace=False)
      (ln_2): LayerNorm((768,), eps=1e-06, elementwise_affine=True)
      (mlp): MLPBlock(
        (0): Linear(in_features=768, out_features=3072, bias=True)
        (1): GELU(approximate='none')
        (2): Dropout(p=0.0, inplace=False)
        (3): Linear(in_features=3072, out_features=768, bias=True)
        (4): Dropout(p=0.0, inplace=False)
      )
    )
    (encoder_layer_3): EncoderBlock(
      (ln_1): LayerNorm((768,), eps=1e-06, elementwise_affine=True)
      (self_attention): MultiheadAttention(
        (out_proj): NonDynamicallyQuantizableLinear(in_features=768, out_features=768, bias=True)
      )
      (dropout): Dropout(p=0.0, inplace=False)
      (ln_2): LayerNorm((768,), eps=1e-06, elementwise_affine=True)
      (mlp): MLPBlock(
        (0): Linear(in_features=768, out_features=3072, bias=True)
        (1): GELU(approximate='none')
        (2): Dropout(p=0.0, inplace=False)
        (3): Linear(in_features=3072, out_features=768, bias=True)
        (4): Dropout(p=0.0, inplace=False)
      )
    )
    (encoder_layer_4): EncoderBlock(
      (ln_1): LayerNorm((768,), eps=1e-06, elementwise_affine=True)
      (self_attention): MultiheadAttention(
        (out_proj): NonDynamicallyQuantizableLinear(in_features=768, out_features=768, bias=True)
      )
      (dropout): Dropout(p=0.0, inplace=False)
      (ln_2): LayerNorm((768,), eps=1e-06, elementwise_affine=True)
      (mlp): MLPBlock(
        (0): Linear(in_features=768, out_features=3072, bias=True)
        (1): GELU(approximate='none')
        (2): Dropout(p=0.0, inplace=False)
        (3): Linear(in_features=3072, out_features=768, bias=True)
        (4): Dropout(p=0.0, inplace=False)
      )
    )
    (encoder_layer_5): EncoderBlock(
      (ln_1): LayerNorm((768,), eps=1e-06, elementwise_affine=True)
      (self_attention): MultiheadAttention(
        (out_proj): NonDynamicallyQuantizableLinear(in_features=768, out_features=768, bias=True)
      )
      (dropout): Dropout(p=0.0, inplace=False)
      (ln_2): LayerNorm((768,), eps=1e-06, elementwise_affine=True)
      (mlp): MLPBlock(
        (0): Linear(in_features=768, out_features=3072, bias=True)
        (1): GELU(approximate='none')
        (2): Dropout(p=0.0, inplace=False)
        (3): Linear(in_features=3072, out_features=768, bias=True)
        (4): Dropout(p=0.0, inplace=False)
      )
    )
    (encoder_layer_6): EncoderBlock(
      (ln_1): LayerNorm((768,), eps=1e-06, elementwise_affine=True)
      (self_attention): MultiheadAttention(
        (out_proj): NonDynamicallyQuantizableLinear(in_features=768, out_features=768, bias=True)
      )
      (dropout): Dropout(p=0.0, inplace=False)
      (ln_2): LayerNorm((768,), eps=1e-06, elementwise_affine=True)
      (mlp): MLPBlock(
        (0): Linear(in_features=768, out_features=3072, bias=True)
        (1): GELU(approximate='none')
        (2): Dropout(p=0.0, inplace=False)
        (3): Linear(in_features=3072, out_features=768, bias=True)
        (4): Dropout(p=0.0, inplace=False)
      )
    )
    (encoder_layer_7): EncoderBlock(
      (ln_1): LayerNorm((768,), eps=1e-06, elementwise_affine=True)
      (self_attention): MultiheadAttention(
        (out_proj): NonDynamicallyQuantizableLinear(in_features=768, out_features=768, bias=True)
      )
      (dropout): Dropout(p=0.0, inplace=False)
      (ln_2): LayerNorm((768,), eps=1e-06, elementwise_affine=True)
      (mlp): MLPBlock(
        (0): Linear(in_features=768, out_features=3072, bias=True)
        (1): GELU(approximate='none')
        (2): Dropout(p=0.0, inplace=False)
        (3): Linear(in_features=3072, out_features=768, bias=True)
        (4): Dropout(p=0.0, inplace=False)
      )
    )
    (encoder_layer_8): EncoderBlock(
      (ln_1): LayerNorm((768,), eps=1e-06, elementwise_affine=True)
      (self_attention): MultiheadAttention(
        (out_proj): NonDynamicallyQuantizableLinear(in_features=768, out_features=768, bias=True)
      )
      (dropout): Dropout(p=0.0, inplace=False)
      (ln_2): LayerNorm((768,), eps=1e-06, elementwise_affine=True)
      (mlp): MLPBlock(
        (0): Linear(in_features=768, out_features=3072, bias=True)
        (1): GELU(approximate='none')
        (2): Dropout(p=0.0, inplace=False)
        (3): Linear(in_features=3072, out_features=768, bias=True)
        (4): Dropout(p=0.0, inplace=False)
      )
    )
    (encoder_layer_9): EncoderBlock(
      (ln_1): LayerNorm((768,), eps=1e-06, elementwise_affine=True)
      (self_attention): MultiheadAttention(
        (out_proj): NonDynamicallyQuantizableLinear(in_features=768, out_features=768, bias=True)
      )
      (dropout): Dropout(p=0.0, inplace=False)
      (ln_2): LayerNorm((768,), eps=1e-06, elementwise_affine=True)
      (mlp): MLPBlock(
        (0): Linear(in_features=768, out_features=3072, bias=True)
        (1): GELU(approximate='none')
        (2): Dropout(p=0.0, inplace=False)
        (3): Linear(in_features=3072, out_features=768, bias=True)
        (4): Dropout(p=0.0, inplace=False)
      )
    )
    (encoder_layer_10): EncoderBlock(
      (ln_1): LayerNorm((768,), eps=1e-06, elementwise_affine=True)
      (self_attention): MultiheadAttention(
        (out_proj): NonDynamicallyQuantizableLinear(in_features=768, out_features=768, bias=True)
      )
      (dropout): Dropout(p=0.0, inplace=False)
      (ln_2): LayerNorm((768,), eps=1e-06, elementwise_affine=True)
      (mlp): MLPBlock(
        (0): Linear(in_features=768, out_features=3072, bias=True)
        (1): GELU(approximate='none')
        (2): Dropout(p=0.0, inplace=False)
        (3): Linear(in_features=3072, out_features=768, bias=True)
        (4): Dropout(p=0.0, inplace=False)
      )
    )
    (encoder_layer_11): EncoderBlock(
      (ln_1): LayerNorm((768,), eps=1e-06, elementwise_affine=True)
      (self_attention): MultiheadAttention(
        (out_proj): NonDynamicallyQuantizableLinear(in_features=768, out_features=768, bias=True)
      )
      (dropout): Dropout(p=0.0, inplace=False)
      (ln_2): LayerNorm((768,), eps=1e-06, elementwise_affine=True)
      (mlp): MLPBlock(
        (0): Linear(in_features=768, out_features=3072, bias=True)
        (1): GELU(approximate='none')
        (2): Dropout(p=0.0, inplace=False)
        (3): Linear(in_features=3072, out_features=768, bias=True)
        (4): Dropout(p=0.0, inplace=False)
      )
    )
  )
  (ln): LayerNorm((768,), eps=1e-06, elementwise_affine=True)
)
Layer: 2
Sequential(
  (head): Linear(in_features=768, out_features=1000, bias=True)
)
Traceback (most recent call last):
  File "/dartfs/rc/nosnapshots/V/VaickusL-nb/EDIT_Students/users/Gokul_Srinivasan/SCC-Tumor-Detection/Gokul_files/CNN_Tumor_Classification/Executables/ViT.py", line 386, in <module>
    model.to(device)
  File "/dartfs/rc/nosnapshots/V/VaickusL-nb/EDIT_Students/users/Gokul_Srinivasan/anaconda3/envs/jupyter-ultimate/lib/python3.7/site-packages/torch/nn/modules/module.py", line 989, in to
…
